benchmarks/NAV/networks/nn-nav-point.onnx (onnx, 11462 bytes, 9 tensors)

fc_1_MatMul_MatMul_W f4 [4, 64]
00000000: 767b 753d 1714 103d 3864 9abe 96ee a13c
00000010: 6a35 9bbe b4f1 5ebe fa00 c0be dceb 633c
00000020: 0c60 133d 445e 73be 85e5 533e ae29 783d
00000030: ed2a 10be 447e 8b3e 79a1 a2be 658c 213c
00000040: ac05 90bd c6cf 94bd de74 acbe 836e 58be
00000050: a0a8 bd3e ebe1 b13d 23cc 0bbd 69f8 4d3d
00000060: cfeb dc3e f3b7 043e f7d0 70be 3925 0cbf
00000070: 6b26 24bf 7f56 df3e 598b debe c9fc 1abe
00000080: ef27 a43d ef4c 093d 3e85 d23e ad0f 1abe
00000090: 8dbd 813e af86 103e f1b2 79be 31f9 be3e
000000a0: 218a 933e 2b78 9e3e b3ae 2bbe e979 333e
000000b0: 7f95 1abf f5fb dcbd 39f2 c43e 63fc adbd
000000c0: 0516 4cbe 050a 6f3d e54e 8abd a68f 43bd
000000d0: 514c 95be 2968 0ebe 7f7d 9f3d c450 e7bd
000000e0: 168f ef3d 65f0 c1be c140 413e c935 5e3e
000000f0: 8d66 f7bc c5e6 fb3a c2fa cf3d f12c 99bd
00000100: 3282 5dbe 79ad 553e b1db b03e ac95 a03e
00000110: 6f9f e43e 2b13 e43d b895 c63e c63c e5be
00000120: f2ee fabe f4eb ca3e 4772 babd 62d3 01bf
00000130: 9ce6 9c3e 5d2c a7bd 1b75 9f3e 4667 423e
00000140: 7cdb be3e c710 2e3e d589 32bc 0079 e73d
00000150: 93a6 a3bd 31fd 803e 9c67 09bd 4740 d53e
00000160: bfe4 a43e 3824 113e d78d 0abe 05f1 223e
00000170: 1d0b ddbd edff dd3c 50cf 473a ad38 a4be
00000180: 50de 8a3e 0ac0 77bd 46e6 49be 2cb8 e23e
00000190: 07da 0d3d 0621 393e f97b b53e 132c 3dbe
000001a0: 96fd d03e 4890 1b3e 14bb f4be d4db ed3e
000001b0: c197 11bd 460c bd3e e2ca aabe 7dc2 b3be
000001c0: a0ce 753e e0ca 833e f756 29bf bd30 643e
000001d0: 80ef 493e 1d99 c53e 5313 c53d d125 28be
000001e0: f0c8 75be 8ebb a4be edb8 6dbe a05a 51be
000001f0: e8f8 c23e d8b3 ae3e 51bd 82bc 9f2c da3e
00000200: 7feb f6be 6136 a63d eb33 e43e 5d02 343f
00000210: 1378 14bd 5639 ebbe 107a 5d3e 6f96 cdbe
00000220: 5565 a73e 7ed1 023e 1574 123f ba48 b8be
00000230: 8d3d aa3e f6af ccbe f30d b8be 5eed d1be
00000240: a9db b2be ea46 12be eb37 eb3d 39c7 363d
00000250: 3afc 923e a86e d8be 237d 0cbf f248 ab3e
00000260: ef6b 183e 19ff 02be 5bc3 cb3d 71c4 9e3d
00000270: d756 82be e1f7 713e 6c32 d13e e0f3 fd3e
00000280: ad74 96be 4a46 ebbd 2f20 923d f245 383e
00000290: 262f 55be 6a7b 94be 4656 a9be a948 443e
000002a0: 3a82 1f3e b0c2 ee3c 6226 90be 95a7 cc3e
000002b0: 9082 333d 35c5 1fbc aef1 f0bc 3b74 9fbc
000002c0: 1d7d 6c3e 222e ccbd 7818 22bd 81a0 52be
000002d0: 2524 dfbd b40c 9cbe c693 a33e fd5f 66be
000002e0: 2b63 e4be 9f26 c2bd e4dd ccbe c74d 34be
000002f0: 4dca 673e dfba fd3e ca8f 22be e89e 05bf
00000300: 3d83 543e 7cd1 1e3f 17c9 b33e 637a a83e
00000310: c500 dfbe 20d6 c7be e617 32be 1e2d a13e
00000320: 8d74 8d3e 3236 bd3e 4998 a73e 264a 183e
00000330: fe77 373e 65d4 79be 91fd b33d a996 523d
00000340: 0793 753e 8f91 f53e 062b 803d 37fc dd3e
00000350: c477 53be d67e 36be 81f8 97be f9f6 983e
00000360: 0997 8ebe b36b f53e 2bca 8a3e 01fb b3be
00000370: bf9a 87be 7655 1bbe 2868 3cbe 5d2f 873e
00000380: 8d30 a23d 48c1 933e 0f68 c73b a6f5 463e
00000390: 5b09 203e 4811 2e3e ccb0 54bd 6c3d 443e
000003a0: 39cb bc3e ca83 71be 6145 5fbe d5d9 bd3d
000003b0: c745 64be 6871 f93b 8ad1 9ebd 5107 a43e
000003c0: 1d84 bdbc 03f3 d83e f9bf 293e b823 18be
000003d0: 9f52 393e 1bd6 bb3d 8593 31bf d39f cbbe
000003e0: 30b9 ce3d 54c2 e73e 18ae d8be f27a a13e
000003f0: 1879 4cbe 341b d83e cb8d 3dbd 3a0e 7a3e
0.059932195 0.03517541 -0.30154586 0.019767087 -0.3031419 -0.2177189 -0.37500745 0.013911214
0.03598027 -0.23766428 0.20693024 0.060586624 -0.14078875 0.2724477 -0.3176382 0.009860133
-0.07032332 -0.07266192 -0.33682913 -0.21135907 0.37042713 0.086856686 -0.034130227 0.05028573
0.43148658 0.12960796 -0.23517214 -0.547443 -0.6412112 0.4362068 -0.4346569 -0.15135492
0.08015429 0.033520635 0.4111728 -0.15045042 0.25339928 0.14113878 -0.24384667 0.37299493
0.28816321 0.30951056 -0.16765861 0.17526974 -0.6038436 -0.107902445 0.3846605 -0.084954046
-0.19930275 0.058359165 -0.06753329 -0.047744416 -0.29159787 -0.13906921 0.07787608 -0.11294702
0.11697213 -0.3787872 0.18872358 0.21700205 -0.030200267 0.0019218555 0.1015525 -0.07479275
-0.21631697 0.20866956 0.3454261 0.3136419 0.44652888 0.111364685 0.387861 -0.4477293
-0.49010426 0.39633143 -0.09103828 -0.5071317 0.3064469 -0.081627585 0.31144032 0.18984708
0.37276828 0.16998588 -0.0108971195 0.11302376 -0.07990756 0.2519317 -0.033546075 0.41650602
0.3220577 0.14173973 -0.1353067 0.15912254 -0.10793135 0.027099574 0.00076221395 -0.3207449
0.27122736 -0.060485877 -0.19716749 0.44281137 0.034631755 0.18079004 0.35446146 -0.18473844
0.4081847 0.15191758 -0.4779898 0.46456778 -0.035545114 0.36923426 -0.33357912 -0.3510932
0.24004602 0.2574072 -0.6614832 0.22284217 0.19720268 0.3859338 0.096228264 -0.16420676
-0.24002433 -0.32174343 -0.23215075 -0.20444727 0.38080525 0.34121585 -0.015959414 0.42612168
-0.48226544 0.08115841 0.4457086 0.70316106 -0.036247324 -0.4594218 0.21628594 -0.40153834
0.32694498 0.12775227 0.5720838 -0.35992986 0.33250085 -0.39977998 -0.35948142 -0.4100141
-0.34933212 -0.14284864 0.11485275 0.044623587 0.2870806 -0.42271924 -0.54878443 0.3345409
0.14884923 -0.12792625 0.099493705 0.07752312 -0.2545688 0.23629715 0.4085878 0.49600124
-0.29385892 -0.11488016 0.07135045 0.17995432 -0.20818767 -0.29000407 -0.33073634 0.19168343
0.15577021 0.029145569 -0.28154284 0.39971605 0.043825686 -0.009751608 -0.029412117 -0.019464603
0.23094602 -0.09969737 -0.039574116 -0.2056904 -0.10895566 -0.30478442 0.3194868 -0.22497554
-0.4460691 -0.09480023 -0.4001304 -0.17607795 0.22635765 0.49556634 -0.15875164 -0.52195597
0.20753188 0.620384 0.35114357 0.32905874 -0.43555275 -0.39030552 -0.17391929 0.31479734
0.27627984 0.3695541 0.32733372 0.14872035 0.17916867 -0.24397428 0.08788598 0.051413212
0.23981868 0.47962615 0.06258206 0.43356487 -0.20651156 -0.17821822 -0.2968178 0.29875925
-0.27849606 0.4793373 0.27107367 -0.35152438 -0.2648525 -0.1516932 -0.18399107 0.26403323
0.079194166 0.288584 0.006085403 0.19429645 0.15628569 0.1699878 -0.05192642 0.19164056
0.36873797 -0.2358543 -0.2180381 0.09270064 -0.22292243 0.007612396 -0.0775481 0.32036832
-0.023134286 0.42372903 0.16577138 -0.14857376 0.18097924 0.09171697 -0.6936572 -0.39770374
0.100939155 0.45265448 -0.42320323 0.31539112 -0.19968069 0.42208254 -0.046277802 0.2441949

fc_1_MatMul_Add_B f4 [64]
00000000: 0000 0000 0000 0000 0000 0000 0000 0000
00000010: 0000 0000 0000 0000 0000 0000 0000 0000
00000020: 0000 0000 0000 0000 0000 0000 0000 0000
00000030: 0000 0000 0000 0000 0000 0000 0000 0000
00000040: 0000 0000 0000 0000 0000 0000 0000 0000
00000050: 0000 0000 0000 0000 0000 0000 0000 0000
00000060: 0000 0000 0000 0000 0000 0000 0000 0000
00000070: 0000 0000 0000 0000 0000 0000 0000 0000
00000080: 0000 0000 0000 0000 0000 0000 0000 0000
00000090: 0000 0000 0000 0000 0000 0000 0000 0000
000000a0: 0000 0000 0000 0000 0000 0000 0000 0000
000000b0: 0000 0000 0000 0000 0000 0000 0000 0000
000000c0: 0000 0000 0000 0000 0000 0000 0000 0000
000000d0: 0000 0000 0000 0000 0000 0000 0000 0000
000000e0: 0000 0000 0000 0000 0000 0000 0000 0000
000000f0: 0000 0000 0000 0000 0000 0000 0000 0000
0.0 0.0 0.0 0.0 0.0 0.0 0.0 0.0
0.0 0.0 0.0 0.0 0.0 0.0 0.0 0.0
0.0 0.0 0.0 0.0 0.0 0.0 0.0 0.0
0.0 0.0 0.0 0.0 0.0 0.0 0.0 0.0
0.0 0.0 0.0 0.0 0.0 0.0 0.0 0.0
0.0 0.0 0.0 0.0 0.0 0.0 0.0 0.0
0.0 0.0 0.0 0.0 0.0 0.0 0.0 0.0
0.0 0.0 0.0 0.0 0.0 0.0 0.0 0.0

fc_1_Add_Add_B f4 [1, 64]
00000000: 7a3c 633e 0e67 0bbd db15 20be d477 2f3e
00000010: 8f91 acbd 96d9 343e c5e9 093e 7076 083e
00000020: ebb2 72be 0931 03be 738b c73e 6882 2cbe
00000030: d3cc 6fbc 2003 853d dbb9 18be 9dbb 733e
00000040: 8b68 e63d e8b0 d9be 08ca 81bd 6129 47bc
00000050: f4d3 b53d 03ad 41be b230 a03d c391 9d3d
00000060: d5c5 7bb9 e3c9 cabe 8049 92be fbb1 24be
00000070: c744 01bf ed2b 5f3e f89f 853d 8a87 82be
00000080: e7d1 303e a651 e73d 784a 3b3e 2c2d a5be
00000090: 5544 4a3e c053 df3c 9a0c 443e 463c 02be
000000a0: 5ed8 1e3e 8e8d 3c3e 3691 323e 401f 03bd
000000b0: 02ad 7dbe 4eff 66be dc96 99be e37b 283e
000000c0: 9ed0 09bd c8d4 653a 99df 57be 58a5 533d
000000d0: 87fc 0b3e 4042 7f3e beb3 1abd 097a df3e
000000e0: 380e 353e a2d2 413d 2abc 6d3e 0d02 89bd
000000f0: a0b5 22be a346 e43d 7551 8a3d 1ad6 2dbd
0.22191039 -0.034033827 -0.15633337 0.17135555 -0.084262006 0.17661127 0.13468082 0.1332643
-0.23701064 -0.12811674 0.3897358 -0.16846621 -0.014636236 0.06494737 -0.14914648 0.23802038
0.11250409 -0.4251778 -0.063373625 -0.012155862 0.088783175 -0.18913655 0.07821788 0.076938175
-0.00024010924 -0.39607152 -0.285717 -0.16083519 -0.5049557 0.217941 0.06524652 -0.25494033
0.17267571 0.1129487 0.18290126 -0.32261026 0.19752629 0.027261615 0.19145432 -0.12718305
0.15512225 0.18413374 0.17438206 -0.032012224 -0.24773028 -0.22558329 -0.2999791 0.16453509
-0.03364622 0.00087673636 -0.2108139 0.051671356 0.1367055 0.24927616 -0.03776907 0.43647793
0.17681205 0.047320016 0.2321631 -0.06689844 -0.15889597 0.111462854 0.06753818 -0.04244051

fc_2_MatMul_MatMul_W f4 [64, 32]
00000000: b1c9 823e 4b56 c93d ef4f 9dbe c8c3 17be
00000010: 9f07 723e eb73 153e 4f7e bc3e b91f 613d
00000020: 45bd 8c3e d4bb 343e 9c94 a23d 73bf 1b3d
00000030: 1e17 7ebd a1c8 e63b f772 9f3c f5d9 9abd
00000040: 3f23 853e 6683 51be 1a91 953e fe4f 923e
00000050: 3531 e1be 35f7 6bbf 0e53 79be 70c8 4fbe
00000060: bc94 8d3e 0ee4 403e ed3a 423e 1f11 11be
00000070: 53a4 c1bd 4408 0d3e 299a 493d e9be 23be
00000080: 0700 103e f319 a93e 94b2 dd3c 6b3c 423e
00000090: d346 9d3d 9523 febd 8619 6b3d f249 22bf
000000a0: 68a5 ddbc e3eb f7bd 0319 423e 2f40 46be
000000b0: 57fb 113e 7517 c53e ce5a d63d dc3c 183d
000000c0: a942 69bf 94d8 f4bb ee74 353d a183 52bd
000000d0: db77 2f3e 9579 0a3d 413d 1b3e fb15 893e
000000e0: 4c11 4dbe 014b 58be 6c4f f5be 2acb 6e3d
000000f0: 997f 7b3e 5606 83bd 4373 b1bd d2fe b73e
00000100: 3823 5d3e 666d 053e c15f 92be 84b7 d3be
00000110: 4fb5 3b3e d134 c5bd 8814 bd3d 7585 7f3c
00000120: be52 503e e4b1 c03e 5c02 0dbe 7faa 79bd
00000130: ad13 1cbe ab5a 473e 7e33 8e3e 39c4 93be
00000140: 3dd5 cbbe 9ae3 f4be 795a 813e 3beb b63d
00000150: a7c8 9c3e c55a 813e 83db 563e 1a66 f33d
00000160: ba9b 9dbe 417e 003e a7ae 013d b521 4e3e
00000170: 58fe cf3e 3c7c c7be 0a07 d23c 2bc2 b6be
00000180: fce2 d93c 974b 91bd 4341 8ebd e049 f0be
00000190: 8ade 4e3e 19eb f2bb 145d 6c3e 00c9 efbc
000001a0: 26b2 e93b 47f0 4f3d c851 673e fd34 503c
000001b0: 2559 653e 2af0 5f3e d842 a23e 1467 84bd
000001c0: 1036 08be 02b4 17bf bf57 2bbc d9ed 19be
000001d0: 8679 09bc 4f14 a93d 7d04 f7be e4a5 4d3c
000001e0: 8349 973e 52d2 063e 1209 503d a399 fabd
000001f0: 5936 803e ef1d 73bd a7f8 5d3e 3c4d 0cbf
00000200: 3925 bd3c e911 893e aea3 233e 3a17 6c3e
00000210: 3123 a0be 969f 78be cac4 963d d165 cc3e
00000220: ce0a 56be 8c64 54be d7da 49be 8361 513e
00000230: c81d 84bd e5ca cd3e 4e8f 41be 01b0 7e3e
00000240: f2e8 3e3e 37b2 813e 7b16 8b3d fc33 953e
00000250: 1124 0dbe 4267 ff3e 82b2 643e 1907 2e3e
00000260: fb79 29bf 98ba 78be c0a8 7fbe 188e b93e
00000270: 4608 bc3d a14c 8b3e f48a eb3e 99ea 98be
00000280: e9dc 433e 7bd8 ed3d aeae 673e 89aa 9d3e
00000290: 50b3 0ebe 646d dbbe 490a 2ebe 37dd 9cbd
000002a0: d121 32bd 2d9d 06bf 3e4c c9be 90b6 8c3e
000002b0: 6023 64bd b502 a43e d373 04be ab90 063e
000002c0: d4a4 fc3d 3b66 253e b4dc a13e 7fb6 c1bc
000002d0: e2dd 873e 35b5 f6be 2e3c ba3e 628b 43be
000002e0: aea4 1f3e 0f55 bbbe af3c 163e 7801 ca3b
000002f0: 0e35 133e 132f 9e3e 4323 ab3e a57f b9be
00000300: 9c79 39be 9dea d03b 0272 cfbd 4fe0 453e
00000310: 7f3a 0e3e 9170 773e fcb5 f93d 568d f93e
00000320: dfca 383e b254 73bc ac9e 44be e6c5 edbe
00000330: dd41 49be 12c8 9e3e 8f8c 7cbe 9008 93bc
00000340: 2008 8d3e 0bf1 86bd eb20 b63e 437d 16be
00000350: 0bfb d3bb 8758 4b3d 3ae7 c03e 5ea9 423c
00000360: 9d12 14be 33be 48bd 4c66 7b3e 8455 e7bd
00000370: 9a37 313e 68a8 883e 4ce1 a6bd ebde 9dbe
00000380: 8ba8 1c3d 7b35 793e f5ea b2bd 73de 20bc
00000390: c171 1cbd 6ba6 81bc 4773 0a3d 1b0b 96bd
000003a0: 314b 263d b98b 393e e04a 41bd 9c4b 0d3e
000003b0: 5777 23bd 5e8f 07be 4cc6 c1bd 3bba ad3e
000003c0: 94a6 d93e e452 0c3e 88f4 8c3e fb06 0cbd
000003d0: c650 58be b836 05bd bcca d5bd 0457 b3be
000003e0: 004e 4d3e a11c c9bd 15f2 a43e 1053 a93d
000003f0: 3250 583e e879 89bd 5f8c 523e 15d6 f9be
0.25544503 0.09830912 -0.30725047 -0.14820778 0.2363572 0.14595 0.36815116 0.054961894
0.2748815 0.17649776 0.07938501 0.038024377 -0.062033765 0.00704296 0.019464 -0.07561103
0.26003453 -0.20460281 0.29212266 0.28576654 -0.43982854 -0.92174083 -0.24348089 -0.20291305
0.27652538 0.18836996 0.18967791 -0.14166687 -0.094551705 0.13772684 0.049219284 -0.15990795
0.1406251 0.3302761 0.027062692 0.1896836 0.07679524 -0.124091305 0.057397388 -0.6339408
-0.02705641 -0.12105539 0.18954854 -0.19360422 0.14256035 0.3849446 0.10466538 0.037167415
-0.9111734 -0.007472107 0.044300966 -0.051395062 0.17135565 0.033807356 0.15160085 0.26774582
-0.2002613 -0.21122362 -0.47912157 0.05829922 0.24560393 -0.06397693 -0.086645626 0.359366
0.21595466 0.13030013 -0.2858868 -0.4135095 0.18330882 -0.096292146 0.09232432 0.0155957835
0.20344064 0.3763572 -0.13770431 -0.060953613 -0.1524188 0.19468181 0.2777366 -0.28860644
-0.39811125 -0.47829896 0.25264338 0.089315854 0.30621836 0.25264564 0.20982175 0.11884709
-0.30782872 0.12548162 0.031660702 0.20130046 0.40623736 -0.3896197 0.025638122 -0.35695013
0.026597492 -0.07094496 -0.069460414 -0.46931362 0.2020208 -0.0074132797 0.23082381 -0.029270649
0.0071318327 0.050766256 0.22589791 0.012707946 0.22397287 0.21868959 0.31691623 -0.06464973
-0.13301873 -0.59259045 -0.010457932 -0.15032138 -0.00839079 0.08255827 -0.48245612 0.012551758
0.29548272 0.13166168 0.0507899 -0.12236335 0.25041464 -0.05935472 0.21676885 -0.5480535
0.023089038 0.26771477 0.15980408 0.23055735 -0.3127685 -0.24279627 0.07361753 0.3992143
-0.20902559 -0.2074148 -0.19712387 0.20447354 -0.06450993 0.4019386 -0.18902323 0.24871828
0.18643549 0.2533128 0.06791397 0.29141223 -0.1378329 0.49883467 0.2233372 0.16994895
-0.6620175 -0.2428993 -0.24966717 0.3624122 0.091812655 0.272069 0.4600445 -0.29866484
0.1912724 0.11613556 0.22625229 0.3079417 -0.1393559 -0.42856896 -0.16996111 -0.07659381
-0.04348928 -0.5258358 -0.3931598 0.27483034 -0.0556978 0.32033315 -0.12934808 0.13141124
0.12336126 0.16152279 0.31613696 -0.023646591 0.2653647 -0.48185125 0.36374038 -0.19096139
0.15590164 -0.36588332 0.14671586 0.006164726 0.14375708 0.3089529 0.3342534 -0.36230198
-0.18112797 0.0063756243 -0.10129167 0.19323848 0.13889502 0.24164034 0.12192914 0.48740643
0.18046139 -0.014851736 -0.19201154 -0.46440047 -0.19654031 0.31012017 -0.24662994 -0.017948419
0.2754526 -0.06588944 0.3557199 -0.14696221 -0.0064691356 0.049644973 0.37676412 0.011881201
-0.14460225 -0.049009513 0.24550742 -0.11295608 0.17306367 0.26690984 -0.08148441 -0.30834135
0.038246673 0.24336807 -0.08736221 -0.009818661 -0.03819442 -0.015826425 0.033801343 -0.07326337
0.040599052 0.18119706 -0.047190547 0.13798374 -0.039908733 -0.13238284 -0.0946165 0.33931145
0.42509902 0.13703495 0.27530313 -0.034186345 -0.21124563 -0.032522887 -0.10439059 -0.35027325
0.20049286 -0.09819914 0.32215944 0.08267796 0.21124342 -0.06712705 0.2056136 -0.48796144

fc_2_MatMul_Add_B f4 [32]
00000000: 0000 0000 0000 0000 0000 0000 0000 0000
00000010: 0000 0000 0000 0000 0000 0000 0000 0000
00000020: 0000 0000 0000 0000 0000 0000 0000 0000
00000030: 0000 0000 0000 0000 0000 0000 0000 0000
00000040: 0000 0000 0000 0000 0000 0000 0000 0000
00000050: 0000 0000 0000 0000 0000 0000 0000 0000
00000060: 0000 0000 0000 0000 0000 0000 0000 0000
00000070: 0000 0000 0000 0000 0000 0000 0000 0000
0.0 0.0 0.0 0.0 0.0 0.0 0.0 0.0
0.0 0.0 0.0 0.0 0.0 0.0 0.0 0.0
0.0 0.0 0.0 0.0 0.0 0.0 0.0 0.0
0.0 0.0 0.0 0.0 0.0 0.0 0.0 0.0

fc_2_Add_Add_B f4 [1, 32]
00000000: 69d5 1dba 829c a73d cb7a dd3d bd36 4ebe
00000010: 6b49 2c3d 3fc3 013e 67ad 863d df04 5a3e
00000020: 58b0 803c 0a7f d7bc b125 e2bc f800 a13c
00000030: 7588 5abc ef95 1b3e b08d 98bc fdd0 623d
00000040: 99e8 5c3e ba1d 903d 3693 d33c d53d 98bc
00000050: 963c a2bd 8f2e 49be 53b0 14be b056 8f3d
00000060: 4417 a0bd e5c8 9e3b 508d b83d 80ae 8dbc
00000070: 9faa 8ebe 7d05 263e 89d1 a93d 3432 69bd
-0.00060208753 0.08184148 0.108144365 -0.20138068 0.042062204 0.12672137 0.065760426 0.2129092
0.015709087 -0.026305694 -0.027605863 0.019653782 -0.013338198 0.15193914 -0.01862225 0.055375088
0.21573104 0.0703692 0.025827032 -0.018584171 -0.07921712 -0.19646667 -0.14520387 0.06998956
-0.078169376 0.004845726 0.09011328 -0.017295122 -0.2786455 0.16213031 0.08291919 -0.056932643

fc_3_MatMul_MatMul_W f4 [32, 2]
00000000: a826 963e 568c 75be 1024 133f a39e 673e
00000010: f4d2 8fbe af2b 973e f49f acbe 4b23 573f
00000020: 3782 a1bd 4a82 1fbf 4a9a 49bf d53b 8bbd
00000030: f4b3 033f 64f4 98be d95a cd3d 7d67 9f3f
00000040: e6d8 4ebc 1be9 15bf 1b31 ff3e 7144 a3be
00000050: f9ef 5abe ca91 53be aecc 053f 7d10 66bf
00000060: e3f4 1e3d 3017 cbbe 8d8a 5f3f 1904 303e
00000070: 3f9b c1bd b6fd 05bf 5555 233e ed0e 043f
00000080: 1b96 bdbe 2547 283f 581c fabe 00e7 093f
00000090: 23ab 993e 9f75 383e 9c79 0c3f d756 06bf
000000a0: 2a5e 03be 2cd9 073f ad41 f33e 5770 a33f
000000b0: b311 643f 074a 203f 2b18 b1be 1da5 083f
000000c0: c656 bdbe 8c4a 4c3f 7b44 bdbe f607 c3be
000000d0: 55a4 32bf 54cd d9bb 0dd6 51bc 461f 033f
000000e0: 654f 2e3f 059f 31bf 6357 d6bc 80f3 053f
000000f0: 9985 493e b007 ba3e 8448 bebf 12a0 48bc
0.29326367 -0.23979315 0.574769 0.22619109 -0.28090632 0.29525515 -0.33715785 0.8403823
-0.07886165 -0.6230818 -0.7875105 -0.067985214 0.5144646 -0.29873955 0.100270934 1.2453457
-0.012624955 -0.58558816 0.49842152 -0.31888154 -0.21380605 -0.20661083 0.5226544 -0.8986891
0.03880776 -0.39666128 0.87320787 0.17189063 -0.09453439 -0.5234026 0.1595052 0.51585275
-0.37028584 0.6573356 -0.4884975 0.53868103 0.3001338 0.18013619 0.5487306 -0.5247626
-0.1282889 0.53065753 0.47511044 1.2768658 0.89089507 0.62612957 -0.3458875 0.5337694
-0.36980265 0.7980125 -0.3696631 -0.3809201 -0.69782 -0.0066467915 -0.012807381 0.51219594
0.68089896 -0.6938327 -0.026164716 0.52324677 0.1967987 0.3633399 -1.486588 -0.012245195

fc_3_MatMul_Add_B f4 [2]
00000000: 0000 0000 0000 0000
0.0 0.0

fc_3_Add_Add_B f4 [1, 2]
00000000: fbcd 53bc 4f39 193d
-0.012927528 0.03740817
