benchmarks/NAV/networks/nn-nav-set.onnx (onnx, 11462 bytes, 9 tensors)

fc_1_MatMul_MatMul_W f4 [4, 64]
0	0x3d795002	0.060867317
1	0xbcc860fd	-0.02446031
2	0xbf58e720	-0.8472767
3	0x3dfef7ad	0.12449584
4	0xbd8b9915	-0.068163075
5	0xbdd64fcb	-0.10464438
6	0xbbb6ce7a	-0.005578813
7	0xbe915a09	-0.28389004
8	0x3de85688	0.113446295
9	0x3dcd9aee	0.10039316
10	0xbc93eab2	-0.018056247
11	0x3e2a4330	0.16627192
12	0xbf1c4bb2	-0.61053
13	0x3edbaaaf	0.4290366
14	0xbe18c747	-0.14919768
15	0x3e498a80	0.1968174
16	0x3e23ad55	0.1598409
17	0x3c4d778c	0.012540709
18	0xbea63f3e	-0.32470125
19	0xbdda71a8	-0.106662095
20	0x3eecef47	0.46276304
21	0x3dd1c110	0.10241902
22	0xbe887e11	-0.2665868
23	0xbbb90c11	-0.0056471904
24	0x3ea5e607	0.3240206
25	0x3e6630bb	0.22479527
26	0xbd908220	-0.070560694
27	0xbf03526a	-0.5129763
28	0xbefd648a	-0.49490768
29	0x3ee6451f	0.4497461
30	0x3dd181b3	0.10229816
31	0xbe859711	-0.26091817
32	0x3e59b2e7	0.21259652
33	0xbd76fbf5	-0.06029888
34	0x3d9be592	0.076121464
35	0xbd0460ff	-0.032319065
36	0x3be3d188	0.0069524683
37	0x3d946061	0.07244945
38	0xbe0b8fa2	-0.1362901
39	0xbdc7b194	-0.09750667
40	0x3e4eb080	0.20184517
41	0x3e64a4e2	0.22328523
42	0x3c51d52a	0.01280717
43	0x3e839da6	0.25706214
44	0xbe26d876	-0.16293511
45	0x3c0ca0b7	0.008583239
46	0x3e1e3ad5	0.1545213
47	0x3d467fe6	0.048461817
48	0xbe1fb23d	-0.15595336
49	0xbd36e894	-0.044655398
50	0xbd37f15b	-0.04490791
51	0x3ea6db6f	0.3258929
52	0x3e0a3915	0.13498338
53	0xbf24c30a	-0.64360106
54	0x3e26b3f6	0.16279587
55	0x3dfd432b	0.12366327
56	0x3e2c0068	0.1679703
57	0xbdeaae21	-0.11458994
58	0x3e51f3a0	0.20503092
59	0x3df408fa	0.11915775
60	0xbe2e0afc	-0.16996378
61	0xbd1c9af8	-0.038233727
62	0x3e44b29a	0.19208756
63	0x3d7c2f6a	0.061568655
64	0xbe851139	-0.25989702
65	0x3d864d7d	0.065577485
66	0x3f08938b	0.5335013
67	0x3e5b574e	0.21420023
68	0x3e8c0eb7	0.27354977
69	0x3dabf683	0.08396628
70	0x3e89d15d	0.26917544
71	0x3dc7e33d	0.09760139
72	0xbe180b1f	-0.14847992
73	0x3d2a0b94	0.041514948
74	0x3d8c3caa	0.06847508
75	0xbe3febe8	-0.18742335
76	0x3d1fc52d	0.0390064
77	0xbe869c44	-0.26291096
78	0x3dac9148	0.08426148
79	0x3eca3ba8	0.3949864
80	0x3e9341b9	0.2876108
81	0x3e48cb7d	0.19608875
82	0x3e60cfed	0.21954317
83	0x3de63e6f	0.11242377
84	0xbde7d53c	-0.11319968
85	0x3e347bdb	0.17625372
86	0xbc4ddf6f	-0.012565478
87	0x3e52df1c	0.20592922
88	0x3e36dad2	0.17856911
89	0x3e345677	0.17611109
90	0xbe200574	-0.1562708
91	0xbe40d25b	-0.18830244
92	0x3e13ae31	0.14421917
93	0xbd9e4782	-0.07728483
94	0x3e3d0c28	0.18461668
95	0x3e15898d	0.14603253
96	0x3e67f349	0.226514
97	0x3de8f906	0.113756225
98	0xbf182435	-0.5943025
99	0x3e09bc9f	0.1345086
100	0x3cf3a7a0	0.029743016
101	0x3deb7d78	0.11498541
102	0x3e1cc23d	0.15308471
103	0xbea556da	-0.32292825
104	0x3e4b4d78	0.1985377
105	0x3d5aea8c	0.053446338
106	0xbe585511	-0.211262
107	0x3c042687	0.008065826
108	0x3e348ae4	0.17631108
109	0x3e784425	0.24244745
110	0xbdaa66de	-0.083204016
111	0xbdf1d481	-0.1180811
112	0x3d309f56	0.043120705
113	0x3dd2accc	0.10286865
114	0xbe8f5e12	-0.28001457
115	0x3e9cdd09	0.30637386
116	0x3e9e8dd1	0.30967572
117	0x3e876b93	0.2644926
118	0xbd7b69dd	-0.061380256
119	0xbe632926	-0.22183666
120	0xbe42bc33	-0.19017105
121	0xbf217408	-0.63067675
122	0xbe8733ac	-0.2640661
123	0xbecf69af	-0.40510318
124	0x3e07d3b7	0.13264357
125	0x3d7df8a9	0.06200472
126	0x3d944198	0.072390735
127	0x3c5c4198	0.013443373
128	0xbe314ccd	-0.17314453
129	0xbe2e39e3	-0.1701427
130	0x3e4ee83e	0.20205781
131	0x3e30ac57	0.17253242
132	0x3cf8839f	0.0303362
133	0xbd3cf8f9	-0.046135876
134	0x3d42e2f9	0.04757974
135	0xbf0ce290	-0.55033207
136	0x3d90b324	0.07065418
137	0x3d830866	0.06398086
138	0xbeb237b2	-0.34808117
139	0x3b37615c	0.0027981615
140	0x3de4d9a4	0.11174324
141	0xbcd9bfd4	-0.026580729
142	0xbd98f20c	-0.07468042
143	0xbddc8614	-0.10767761
144	0xbe24424e	-0.16040918
145	0x3e555179	0.2083186
146	0xbf3cc8fa	-0.73744166
147	0xbd3b9ca5	-0.045803685
148	0x3e0179fc	0.1264419
149	0xbe83f5ff	-0.25773618
150	0xbe3bdf15	-0.18346818
151	0x3db82426	0.0899127
152	0x3c9a37d9	0.018825458
153	0xbe7ecd30	-0.2488296
154	0xbeadea7b	-0.33967957
155	0x3fa0f8d4	1.2575936
156	0xbe886cc8	-0.26645494
157	0x3da9b7a7	0.08286982
158	0x3e3ee8d3	0.18643503
159	0xbe9baac4	-0.3040372
160	0xbe404fa2	-0.18780378
161	0xbe2e2ad2	-0.17008522
162	0xbdedd8a1	-0.11613584
163	0xbdab64f0	-0.08368862
164	0xbee1cd2f	-0.44101855
165	0xbea29fc6	-0.31762522
166	0xbe867b35	-0.26265875
167	0x3f3052b2	0.68876183
168	0x3d1e0f11	0.038588587
169	0xbd62f1ec	-0.055406496
170	0xbe81ab6f	-0.25326106
171	0x3eb95b82	0.36202627
172	0x3e37bb1a	0.17942467
173	0xbc9be049	-0.019027846
174	0xbd0db7a4	-0.03459896
175	0x3e1c2615	0.15248902
176	0xbd8f08e9	-0.06984121
177	0xbe12b2da	-0.14326039
178	0xbef19baf	-0.4718909
179	0x3e90fdd7	0.28318664
180	0x3e94afef	0.29040477
181	0xbda43847	-0.080185466
182	0x3e92da5e	0.28682226
183	0xbf10b82a	-0.5653101
184	0xbe9790ef	-0.29602763
185	0x3f2059aa	0.62636817
186	0xbdc75c34	-0.09734383
187	0xbac0f9a2	-0.0014722834
188	0xbdec0a7a	-0.11525436
189	0xbd2d4cef	-0.042309698
190	0xbe12d4b9	-0.1433896
191	0xbe709d43	-0.2349749
192	0x3e2030a1	0.1564355
193	0xbd821c76	-0.06353085
194	0xbec8c51b	-0.3921288
195	0x3e30d86d	0.1727006
196	0xbdf6eeb0	-0.12057245
197	0xbdeeb11a	-0.11654873
198	0x3e121c0a	0.14268509
199	0xbd3eb554	-0.046559647
200	0x3e916041	0.28393748
201	0x3db17326	0.08664541
202	0x3ed11826	0.40838736
203	0xbdc86a30	-0.09785879
204	0x3ec5010b	0.38477358
205	0x3e4a6d36	0.19768223
206	0xbd669ae9	-0.056300078
207	0xbdc8dab5	-0.0980734
208	0x3e80e449	0.25174168
209	0x3e749142	0.23883536
210	0x3e320b98	0.17387235
211	0x3e02a874	0.12759572
212	0x3e03cb75	0.12870581
213	0xbe0880ac	-0.13330334
214	0xbd30842d	-0.043094803
215	0x3e8ba759	0.27276114
216	0xbe432e8e	-0.19060728
217	0x3e33da78	0.17563808
218	0x3e54d5e6	0.20784721
219	0xbeabca9f	-0.33553025
220	0x3e7d2268	0.24720156
221	0x3e32fd6c	0.17479485
222	0xbe70639b	-0.23475496
223	0x3f0c9446	0.5491375
224	0x3dab6a7f	0.08369922
225	0x3e76f204	0.24115759
226	0x3d80a510	0.06281483
227	0x3e60fd95	0.21971734
228	0x3edcf25f	0.43153664
229	0xbd41b0a3	-0.047287595
230	0xbe019082	-0.12652782
231	0xbea059fd	-0.31318656
232	0x3e5782b4	0.21045953
233	0x3dfea29a	0.124333575
234	0x3e0cf80d	0.13766499
235	0x3e1281be	0.14307305
236	0x3d9c78ee	0.07640253
237	0x3e96e19e	0.29469007
238	0x3d9e31b7	0.07724326
239	0xbcba52c0	-0.022744536
240	0x3d648073	0.05578656
241	0x3d670e71	0.056410257
242	0x3cec1b7a	0.028821696
243	0xbe8fc915	-0.280831
244	0xbc9d2152	-0.019180927
245	0xbeaf140d	-0.34194985
246	0xbded5aac	-0.1158956
247	0x3e9513e8	0.2911675
248	0x3dbd6b6a	0.09249003
249	0xbe9aa424	-0.30203354
250	0xbc04846d	-0.008088213
251	0x3ef8078d	0.4844326
252	0xbdd783dc	-0.10523197
253	0x3dd1365a	0.10215445
254	0x3db55766	0.088545606
255	0x3d38a964	0.04508342

fc_1_MatMul_Add_B f4 [64]
0	0x00000000	0.0
1	0x00000000	0.0
2	0x00000000	0.0
3	0x00000000	0.0
4	0x00000000	0.0
5	0x00000000	0.0
6	0x00000000	0.0
7	0x00000000	0.0
8	0x00000000	0.0
9	0x00000000	0.0
10	0x00000000	0.0
11	0x00000000	0.0
12	0x00000000	0.0
13	0x00000000	0.0
14	0x00000000	0.0
15	0x00000000	0.0
16	0x00000000	0.0
17	0x00000000	0.0
18	0x00000000	0.0
19	0x00000000	0.0
20	0x00000000	0.0
21	0x00000000	0.0
22	0x00000000	0.0
23	0x00000000	0.0
24	0x00000000	0.0
25	0x00000000	0.0
26	0x00000000	0.0
27	0x00000000	0.0
28	0x00000000	0.0
29	0x00000000	0.0
30	0x00000000	0.0
31	0x00000000	0.0
32	0x00000000	0.0
33	0x00000000	0.0
34	0x00000000	0.0
35	0x00000000	0.0
36	0x00000000	0.0
37	0x00000000	0.0
38	0x00000000	0.0
39	0x00000000	0.0
40	0x00000000	0.0
41	0x00000000	0.0
42	0x00000000	0.0
43	0x00000000	0.0
44	0x00000000	0.0
45	0x00000000	0.0
46	0x00000000	0.0
47	0x00000000	0.0
48	0x00000000	0.0
49	0x00000000	0.0
50	0x00000000	0.0
51	0x00000000	0.0
52	0x00000000	0.0
53	0x00000000	0.0
54	0x00000000	0.0
55	0x00000000	0.0
56	0x00000000	0.0
57	0x00000000	0.0
58	0x00000000	0.0
59	0x00000000	0.0
60	0x00000000	0.0
61	0x00000000	0.0
62	0x00000000	0.0
63	0x00000000	0.0

fc_1_Add_Add_B f4 [1, 64]
0	0x3f5b8da1	0.85762984
1	0x3ddfa713	0.10920539
2	0xbe922641	-0.2854481
3	0x3e6234c1	0.22090437
4	0x3f18b16b	0.5964572
5	0x3ef619cc	0.48066556
6	0x3eb5be47	0.35496733
7	0xbcec54f3	-0.0288491
8	0x3f3fea42	0.74966824
9	0x3ebb28a2	0.36554438
10	0xbe2c968a	-0.16854301
11	0x3ecea45b	0.40359768
12	0x3ebc54d0	0.36783457
13	0x3ead0db2	0.3379951
14	0x3f10451d	0.5635546
15	0xbe632475	-0.22181876
16	0x3e1ddc2f	0.15416025
17	0x3e347a2c	0.1762473
18	0x3ebc9b56	0.36837262
19	0x3e874ac2	0.26424223
20	0xbf5143ba	-0.8174397
21	0x3ecb775e	0.39739507
22	0x3f0596e9	0.52183396
23	0x3ec5f8e3	0.38666448
24	0xbe37ef63	-0.17962413
25	0xbd6f8df9	-0.058485005
26	0x3f28b00c	0.65893626
27	0x3f3544f9	0.7080837
28	0x3ece4aa0	0.4029131
29	0x3eb18166	0.34669036
30	0x3f1fb76f	0.6238927
31	0x3e3e3a18	0.18576849
32	0x3edaa7dc	0.42706192
33	0x3e039643	0.12850289
34	0xbe9ad9f6	-0.30244416
35	0x3eeecc85	0.4664041
36	0xbd90f836	-0.070785925
37	0x3e49d3f5	0.19709761
38	0x3f0bbb10	0.5458231
39	0xbe24a913	-0.16080122
40	0x3ecf4d3c	0.40488613
41	0x3ea73ac6	0.32662028
42	0x3f345a92	0.704507
43	0x3f030860	0.51184654
44	0x3f0f9b6c	0.5609653
45	0x3e87b242	0.26503187
46	0x3ec7e43d	0.3904132
47	0x3f22da1d	0.63614064
48	0xbf6b508b	-0.91919774
49	0x3ed3bbe2	0.4135428
50	0x3f5a0c3f	0.85174936
51	0x3e6d403e	0.23169038
52	0x3df10065	0.117676534
53	0xbecfb552	-0.40568024
54	0x3e951fd6	0.2912585
55	0x3ea34587	0.31888983
56	0x3ec4b537	0.38419506
57	0xbe856121	-0.26050666
58	0x3f295f39	0.66160923
59	0x3e485f21	0.19567539
60	0x3f38903c	0.72095084
61	0x3e868c10	0.26278734
62	0x3defa861	0.117020376
63	0x3ec22eff	0.3792648

fc_2_MatMul_MatMul_W f4 [64, 32]
0	0xbf346c9c	-0.70478225
1	0xbd16fff8	-0.036865205
2	0xbdf112fe	-0.117712006
3	0x3e20a031	0.15686108
4	0x3e4054a8	0.18782294
5	0x3e77cdff	0.24199675
6	0x3ecda08a	0.40161544
7	0x3df38c34	0.11891976
8	0x3e74fa16	0.23923525
9	0x3e451a5e	0.1924834
10	0x3db53f05	0.08849911
11	0x3e2877ee	0.16452
12	0xbd740f23	-0.059584748
13	0x3eda9564	0.426921
14	0x3c881c3e	0.01661503
15	0xbd959509	-0.07303817
16	0x3d4162b9	0.04721329
17	0x3cb1ae34	0.021689512
18	0x3e33c708	0.17556393
19	0x3e1590bb	0.14605992
20	0xbe42df3d	-0.19030471
21	0xbb534f24	-0.0032243216
22	0xbd2974f6	-0.04137131
23	0x3e56ba16	0.20969424
24	0x3da28769	0.07935984
25	0x3e39ab13	0.18131666
26	0x3dcc04a7	0.09961825
27	0xbe863f9a	-0.262204
28	0xbdf0cfe0	-0.11758399
29	0x3e008fad	0.12554808
30	0x3b27eb75	0.002562252
31	0x3e5e1ab1	0.2168987
32	0x3d843657	0.06455677
33	0x3d9439c0	0.072375774
34	0xbc33d70e	-0.010976566
35	0x3e125f89	0.14294256
36	0x3db43bf4	0.08800498
37	0xbc211a5e	-0.009832947
38	0xbd09f971	-0.03368515
39	0xbe8baa51	-0.2727838
40	0xbbd6e479	-0.006557998
41	0xbe575a10	-0.2103045
42	0x3e868153	0.26270542
43	0xbe501401	-0.20320131
44	0x3e25b7d5	0.16183408
45	0x3dd8861c	0.10572454
46	0x3e20f0dc	0.1571688
47	0xbbbae7e0	-0.005703911
48	0xbdb89e84	-0.090146095
49	0xbcec4674	-0.028842188
50	0xbdb11967	-0.08647423
51	0xbcf4a969	-0.029865937
52	0x3c291297	0.010319374
53	0xbd7d0d7b	-0.061780434
54	0x3e3d35a5	0.18477495
55	0x3e3e8d3f	0.18608569
56	0xbdf54e4c	-0.119778246
57	0xbe36dacc	-0.17856902
58	0xbdc68eb3	-0.096951865
59	0x3e227b2d	0.158673
60	0x3e22fabf	0.15915965
61	0xbe0ddb7f	-0.13853262
62	0xbddcc88f	-0.10780441
63	0x3e0b9089	0.13629355
64	0xbd6aea6a	-0.05735246
65	0xbbd3751b	-0.006453169
66	0xbd1c30cb	-0.03813247
67	0xbdaa7273	-0.08322611
68	0x3dccc196	0.09997861
69	0x3daa2128	0.08307105
70	0x3c17bccf	0.009261324
71	0xbe5a7543	-0.21333794
72	0x3e33b86a	0.17550817
73	0x3e43fae0	0.1913867
74	0xbd420596	-0.04736861
75	0x3ec21651	0.3790765
76	0xbe1c6b79	-0.15275373
77	0x3e1dc20f	0.15406059
78	0xbe9d5544	-0.30729115
79	0xbe3dea28	-0.18546355
80	0x3df10fbc	0.11770579
81	0x3e858ab1	0.26082376
82	0x3da3b990	0.079943776
83	0xbd65596a	-0.055993475
84	0x3e01c85d	0.12674089
85	0x3eb23179	0.3480337
86	0x3d52b1a4	0.051438943
87	0x3e9b6b24	0.3035518
88	0xbdfe4ad8	-0.12416619
89	0x3eb12733	0.3460022
90	0x3e85b07f	0.26111218
91	0xbcd4eac8	-0.025990859
92	0x3e5e60e9	0.21716656
93	0xbe2e0d13	-0.16997175
94	0xbbfef173	-0.007780248
95	0x3e97661f	0.295701
96	0x3e59709a	0.2123436
97	0xbd9dc346	-0.07703261
98	0x3d984cfc	0.074365586
99	0xbe5fded0	-0.2186234
100	0x3e11a83f	0.14224337
101	0xbd69732f	-0.056994613
102	0x3e233c5a	0.15940991
103	0x3e65b07e	0.22430608
104	0xbdbbd88e	-0.09172164
105	0xbdd02e33	-0.10165062
106	0x3e4b6423	0.19862418
107	0xbdeabcc0	-0.114617825
108	0x3e73112b	0.23737018
109	0x3df8685c	0.1212928
110	0x3e967bd3	0.29391345
111	0x3d8dfca4	0.06932953
112	0x3d224a8c	0.039621875
113	0xbdd67f76	-0.1047353
114	0xbd6f7b4f	-0.058467206
115	0xbe4a5306	-0.19758233
116	0xbc9e5369	-0.019326882
117	0x3e1af959	0.15134181
118	0xbe393232	-0.18085554
119	0xbd87f6de	-0.06638883
120	0x3e071b26	0.1319395
121	0x3e1d79a3	0.15378432
122	0x3e1d92df	0.15388058
123	0xbeb2d705	-0.34929672
124	0xbc958dd2	-0.018256102
125	0x3d6d9912	0.058007307
126	0x3e888145	0.26661125
127	0xbdb74878	-0.08949369
128	0xbdbc1bed	-0.09185014
129	0x3c31e50c	0.010857832
130	0x3dc79db5	0.09746877
131	0xbe28f071	-0.16497971
132	0xbe085c89	-0.1331655
133	0xbb893a98	-0.004187893
134	0xbea1d74f	-0.3160958
135	0x3e355564	0.17708355
136	0xbcf19388	-0.029489294
137	0xbe3b2f4c	-0.18279761
138	0x3d652653	0.055944752
139	0x3e8747bf	0.26421925
140	0xbd8570a2	-0.06515624
141	0xbcabec97	-0.020986838
142	0x3e594816	0.21218905
143	0x3db5fd2f	0.088861816
144	0x3e696a11	0.22794367
145	0x3e250a9b	0.16117327
146	0xbe4a1b91	-0.19737078
147	0x3df0d06c	0.11758503
148	0x3c01c8ff	0.007921456
149	0x3e954026	0.29150504
150	0xbdd653c3	-0.10465195
151	0xbe0ba034	-0.13635331
152	0xbe0a42f8	-0.13502109
153	0xbc04e8f8	-0.008112185
154	0xbe18a479	-0.14906491
155	0xbf12cb62	-0.5734159
156	0x3e8cc1c7	0.2749159
157	0x3e50aa1f	0.20377396
158	0x3dee1080	0.11624241
159	0xbdb23c78	-0.0870294
160	0x3d8417eb	0.064498745
161	0xbd259451	-0.04042465
162	0x3e695da2	0.22789624
163	0x3e42cef6	0.19024262
164	0xbd3e2404	-0.046421066
165	0xbe3d77a7	-0.18502675
166	0xbe250c61	-0.16118003
167	0xbe4fb4e3	-0.20283847
168	0x3deb10f0	0.1147784
169	0xbe582632	-0.2110832
170	0xbe6564df	-0.2240176
171	0x3e10c25c	0.14136642
172	0xbd65679b	-0.05600701
173	0x3dcb0088	0.09912211
174	0x3d76b62d	0.06023233
175	0x3cf0c28a	0.029389638
176	0xbb67613f	-0.0035305766
177	0x3d926bba	0.071494535
178	0x3e0d6646	0.13808545
179	0xbd83b45a	-0.06430884
180	0x3df47f4d	0.11938343
181	0xbe4a0535	-0.19728549
182	0x3d5098f2	0.05092711
183	0xbe0811f1	-0.13288094
184	0x3df147eb	0.117812954
185	0xbe40d0b7	-0.18829618
186	0x3dc9d74f	0.0985552
187	0xbf8bd327	-1.0923814
188	0x3eaa328f	0.33241698
189	0x3ea3728a	0.31923324
190	0x3dd514ea	0.1040438
191	0x3e62552f	0.22102807
192	0x3e1aa5f4	0.15102369
193	0xbd3eddb5	-0.046598155
194	0xbe26a508	-0.16273892
195	0xbd3d9460	-0.04628408
196	0x3e4e2eb9	0.20135011
197	0x3e555175	0.20831855
198	0xbdff9909	-0.12480361
199	0x3e26cbbe	0.16288659
200	0x3e150045	0.14550884
201	0x3dbbb3aa	0.091651276
202	0xbe3e8d52	-0.18608597
203	0xbe1aa8ac	-0.15103406
204	0xbe51d750	-0.20492291
205	0x3d982f4d	0.07430897
206	0xbe64676d	-0.22305079
207	0xbccc19c0	-0.024914622
208	0x3e2a2e40	0.16619205
209	0xbce7432a	-0.028230269
210	0x3e898097	0.2685592
211	0xbe0f5f9d	-0.14001317
212	0x3dbe3985	0.09288315
213	0xbdeeade0	-0.11654258
214	0x3e2154f1	0.15755059
215	0xbd4bd8e3	-0.049767386
216	0x3d253b82	0.040339954
217	0xbc7cd2ea	-0.015431145
218	0x3e8a20af	0.2697806
219	0xbf20cc6d	-0.6281193
220	0x3e8e815a	0.27833062
221	0x3e9ad3bf	0.30239674
222	0xbe2cd466	-0.16877899
223	0x3cf2f490	0.029657632
224	0x3df89c3a	0.12139173
225	0x3e820707	0.25395986
226	0xbbf22a87	-0.0073903236
227	0xbc150934	-0.0090964325
228	0xbdc78559	-0.09742231
229	0xbd99a1b7	-0.07501548
230	0x3ef39f5f	0.47582528
231	0xbd6d1142	-0.057877786
232	0xbdeaa04f	-0.11456358
233	0xbdf70e81	-0.12063313
234	0xbe484345	-0.19556911
235	0x3e8cf512	0.27530724
236	0xbd16a652	-0.03677971
237	0x3e10d912	0.14145306
238	0x3e134a08	0.1438371
239	0x3ef21967	0.47285005
240	0x3e833a04	0.256302
241	0x3ea567b8	0.32305694
242	0x3e946694	0.2898451
243	0xbcc91c21	-0.024549546
244	0xbd1f2ae8	-0.038859278
245	0xbeb98e44	-0.36241353
246	0xbd45444e	-0.048160844
247	0xbe2b1191	-0.1670592
248	0x3db720e4	0.0894182
249	0x3d540b8e	0.051768832
250	0x3e5e0ecd	0.21685334
251	0xbd8f1bf2	-0.06987752
252	0x3e6ca278	0.23108852
253	0x3d97158d	0.07377157
254	0x3e257c2d	0.1616065
255	0x3b4d84a9	0.003135959

fc_2_MatMul_Add_B f4 [32]
0	0x00000000	0.0
1	0x00000000	0.0
2	0x00000000	0.0
3	0x00000000	0.0
4	0x00000000	0.0
5	0x00000000	0.0
6	0x00000000	0.0
7	0x00000000	0.0
8	0x00000000	0.0
9	0x00000000	0.0
10	0x00000000	0.0
11	0x00000000	0.0
12	0x00000000	0.0
13	0x00000000	0.0
14	0x00000000	0.0
15	0x00000000	0.0
16	0x00000000	0.0
17	0x00000000	0.0
18	0x00000000	0.0
19	0x00000000	0.0
20	0x00000000	0.0
21	0x00000000	0.0
22	0x00000000	0.0
23	0x00000000	0.0
24	0x00000000	0.0
25	0x00000000	0.0
26	0x00000000	0.0
27	0x00000000	0.0
28	0x00000000	0.0
29	0x00000000	0.0
30	0x00000000	0.0
31	0x00000000	0.0

fc_2_Add_Add_B f4 [1, 32]
0	0xbd9b32a9	-0.07578022
1	0x3e1dabbf	0.15397547
2	0x3ca84a09	0.020543115
3	0xbe2210e0	-0.1582675
4	0x3dd45263	0.103672765
5	0x3cd0215d	0.025406534
6	0xbca6eb14	-0.020375766
7	0x3e14edd8	0.14543855
8	0x3d4d6032	0.050140567
9	0x3cf0c9e9	0.029393153
10	0x3cabce13	0.020972287
11	0x3e482fbb	0.19549458
12	0xbcb44839	-0.022007095
13	0x3d5f088a	0.054451503
14	0xbca2ec4f	-0.019888071
15	0x3de3a74f	0.11115896
16	0x3c401b71	0.011725293
17	0x3d27e8bd	0.04099344
18	0x3d9c8da9	0.07644207
19	0x3e0c6029	0.13708557
20	0x3e2c8259	0.16846599
21	0x3ddf890f	0.10914814
22	0x3e685d98	0.22691953
23	0x3d8b39be	0.06798123
24	0x3de4b7f8	0.11167902
25	0x3d75681a	0.059913732
26	0x3e2a785e	0.16647479
27	0xbf186f3f	-0.5954475
28	0x3dd49579	0.10380072
29	0x3e11e0e8	0.14245951
30	0x3dfd6c66	0.12374191
31	0x3e0357a5	0.12826402

fc_3_MatMul_MatMul_W f4 [32, 2]
0	0x3f1f57c9	0.62243325
1	0x3f0df290	0.55448246
2	0x3e81ee00	0.25376892
3	0x3e25d1db	0.16193335
4	0xbe241dd3	-0.16027002
5	0x3e032449	0.1280681
6	0xbeeed82d	-0.46649304
7	0x3ebd301a	0.3695076
8	0xbe87c67a	-0.26518613
9	0xbe29b27d	-0.16571994
10	0xbe2b0f02	-0.16704944
11	0xbdc7c49a	-0.09754296
12	0x3f085158	0.5324912
13	0x3c5b8fab	0.013400952
14	0x3d98a177	0.07452672
15	0x3ed2eae0	0.4119482
16	0xbdaced70	-0.08443725
17	0xbeb1b69f	-0.3470964
18	0x3e866851	0.26251462
19	0xbeb16918	-0.34650493
20	0xbd4eafe3	-0.050460707
21	0xbe049ebc	-0.12951177
22	0xbb875cf8	-0.004130956
23	0xbf2bc3a5	-0.67095405
24	0x3cfc9e88	0.030837312
25	0xbec17ca0	-0.37790394
26	0x3e68b349	0.22724642
27	0xbebdc4ad	-0.37064114
28	0xbb4ba449	-0.0031073263
29	0xbed239d8	-0.41059756
30	0x3c08c76b	0.008348326
31	0x3e8eecf9	0.2791517
32	0xbec54b91	-0.38534215
33	0x3dc1f366	0.09470253
34	0xbe2cada1	-0.16863109
35	0x3ed30e00	0.4122162
36	0x3e76c5a2	0.24098828
37	0x3caa4775	0.020786026
38	0x3ec1cae0	0.37850094
39	0xbe32ddd5	-0.17467435
40	0x3e9e7edd	0.30956164
41	0x3d887825	0.06663541
42	0x3781b783	1.5463453e-05
43	0xbe826162	-0.25464922
44	0x3ec80a34	0.39070284
45	0x3d51dd4b	0.051236432
46	0xbe5d180c	-0.21591204
47	0x3d03d7b9	0.03218815
48	0xbe2c2b40	-0.16813374
49	0x3ea9eb46	0.33187312
50	0xbe1c6ab0	-0.15275073
51	0xbe5e8d28	-0.21733534
52	0xbf04014f	-0.51564497
53	0x3c81e6af	0.015857069
54	0xbf00b432	-0.50274956
55	0x3eb60164	0.35547936
56	0x3e27f352	0.16401413
57	0x3df792d0	0.12088549
58	0xbd49a3af	-0.049228366
59	0x3ef76f29	0.48326996
60	0x3dfa4d75	0.12221805
61	0x3dda9d13	0.10674491
62	0xbe9bafb2	-0.30407482
63	0x3c01b2ea	0.007916192

fc_3_MatMul_Add_B f4 [2]
0	0x00000000	0.0
1	0x00000000	0.0

fc_3_Add_Add_B f4 [1, 2]
0	0x3c24dca9	0.010062375
1	0x3cf6d1f3	0.030129408
